best_cudnn_lstm_model.pth (torch, 85194 bytes, 7 tensors)

linearIn.weight f4 [50, 2]
0	0x3d9b51b0	0.0758394
1	0x408dab26	4.427142
2	0xbd2e6348	-0.04257515
3	0xbf5c5170	-0.86061764
4	0xbf4727ca	-0.7779509
5	0x3bfc9cf7	0.0077091414
6	0x3c99a77b	0.018756619
7	0x40a59b77	5.1752276
8	0x3e34f4b8	0.17671478
9	0xbf38932a	-0.72099555
10	0xbd17bfac	-0.037048027
11	0x3e92ae42	0.28648573
12	0x3db117a5	0.08647088
13	0x3ffda117	1.9814786
14	0x3cdd87fc	0.027042381
15	0xbf93c6f2	-1.1545088
16	0xbf5cd48a	-0.8626181
17	0x3f425b30	0.7592039
18	0x3d5c7687	0.053823974
19	0x408865bd	4.262419
20	0xbd4ea517	-0.05045041
21	0xbf9e030f	-1.2344683
22	0xbf2b26f3	-0.66856307
23	0xbec882a4	-0.3916217
24	0xbf00a49e	-0.50251186
25	0x3d5dbb31	0.054133598
26	0xbf24971c	-0.64293075
27	0xbeb6efbd	-0.3572978
28	0x3db68d16	0.08913629
29	0xbf9158f7	-1.1355275
30	0x3c0f4f72	0.008746969
31	0xbfd3af4b	-1.653787
32	0xbd031c1d	-0.032009233
33	0x3f6ed240	0.93289566
34	0xbcb04416	-0.02151684
35	0xbfab0a4b	-1.3362516
36	0xbdacb82d	-0.08433566
37	0xbf83076d	-1.0236641
38	0xbd549b31	-0.051905815
39	0x3fabff78	1.3437338
40	0x3dbd71fe	0.09250258
41	0x40108fd8	2.2587795
42	0xbec8ab31	-0.3919311
43	0x3e5c0d84	0.21489531
44	0x3ca6fcd4	0.02038423
45	0x40aef711	5.4676595
46	0x3c3e1301	0.011601211
47	0x40013a61	2.0191882
48	0x3cfc6165	0.03080816
49	0xbfd4d520	-1.662754
50	0xbf985a08	-1.1902475
51	0x3ef08ca9	0.46982315
52	0xbd091df8	-0.033475846
53	0x3f04cb0e	0.51872337
54	0x3cbc354b	0.02297463
55	0xbf96dff4	-1.1787095
56	0xba626fa3	-0.0008637851
57	0xbfff7af8	-1.9959402
58	0x3e49c52e	0.19704124
59	0xbf413f8d	-0.75487596
60	0x3dc2b221	0.09506632
61	0xbfcdfb7a	-1.609237
62	0xbe19964f	-0.14998744
63	0xbf9e991b	-1.2390474
64	0x3d8af750	0.06785452
65	0x3ff4b145	1.9116598
66	0xbf46fe12	-0.7773143
67	0x3f845d76	1.0341022
68	0x3c3c9e97	0.01151242
69	0xbf6508f9	-0.89466816
70	0x3a83e5cb	0.001006299
71	0xbfa329aa	-1.274709
72	0xbc8ed5ed	-0.017435992
73	0xbfd27bde	-1.6444051
74	0xbd23ec78	-0.040020436
75	0xbf87bcf3	-1.0604538
76	0x3d32066a	0.04346315
77	0xbe3fea6c	-0.18741769
78	0xbd2d3b1e	-0.042292707
79	0x3f78fcc1	0.9726067
80	0x392a124c	0.0001621928
81	0xbfe68930	-1.8010616
82	0x3ca3486d	0.019931996
83	0x400be031	2.1855586
84	0xbddfe536	-0.109323904
85	0x3f3e4dd1	0.7433749
86	0x3adf2924	0.0017025811
87	0xbfcf8a32	-1.6214049
88	0x3c4c264a	0.012460301
89	0xbf4a3c17	-0.7899794
90	0xba2caf25	-0.0006587378
91	0xc00205a7	-2.031595
92	0x3dd4ce5b	0.10390922
93	0xbf396fd1	-0.72436243
94	0x3b72d1ab	0.0037051241
95	0xbf8e6308	-1.1123972
96	0xbf3fc386	-0.7490772
97	0x3f69c21c	0.9131181
98	0x3b36b029	0.0027875996
99	0xc02a3054	-2.6591997

linearIn.bias f4 [50]
0	0x3ef26bc7	0.47347853
1	0xbef155c2	-0.4713574
2	0xbee55d70	-0.4479785
3	0x3e09730f	0.13422798
4	0x3e75e11c	0.24011654
5	0xbf518524	-0.8184378
6	0x3fa58fdf	1.2934531
7	0xbcf28296	-0.029603284
8	0x3f8a971e	1.0827367
9	0x3eef9fc0	0.46801567
10	0xbf988acb	-1.1917356
11	0x3bb60f9e	0.005556061
12	0x3e206372	0.15662935
13	0x3ca7b3df	0.020471511
14	0x3ea02aaa	0.3128255
15	0xbfce0278	-1.6094503
16	0xbf563935	-0.8368104
17	0xbf27e0c0	-0.65577316
18	0xbee06ed1	-0.43834546
19	0xbf7f67a7	-0.99767536
20	0x3fbbb734	1.4665284
21	0x3f875812	1.0573752
22	0xbf0859a4	-0.5326178
23	0xbfaded19	-1.3587981
24	0xbd52517c	-0.05134724
25	0xbd9f441a	-0.07776661
26	0xbe855c03	-0.26046762
27	0xbf838c7f	-1.0277251
28	0xbf23255c	-0.6372888
29	0xbf28b07e	-0.65894306
30	0x3dd9cb6a	0.10634501
31	0xbf20f1b8	-0.62868834
32	0xbfc69bd0	-1.55163
33	0x3f25980f	0.6468515
34	0xbfb18370	-1.3868237
35	0xbf97663f	-1.1828078
36	0xbf5e8106	-0.86915624
37	0xbf0212b5	-0.50809795
38	0xbf5058ee	-0.81385696
39	0xbf4159af	-0.7552747
40	0xbf69b99a	-0.9129883
41	0xbfd36168	-1.6514101
42	0x3f8097f1	1.0046369
43	0xbf33ad1c	-0.7018602
44	0xbf5184d5	-0.8184331
45	0xbf2e99d2	-0.6820346
46	0x3e903e30	0.28172445
47	0xbf8dc7cc	-1.1076598
48	0xbeb9b33b	-0.36269554
49	0xbfd597c5	-1.6686941

lstm.weight_ih_l0 f4 [200, 50]
0	0xbf2d6448	-0.6773114
1	0xbe2d3e45	-0.16918285
2	0xbfa7469b	-1.3068422
3	0xbf3d5ec5	-0.7397273
4	0xbe7304ac	-0.23732251
5	0x3cf2cc93	0.029638564
6	0xbeb3f79c	-0.35149848
7	0xbe28df1c	-0.1649136
8	0xbefc610e	-0.49292797
9	0xbf346173	-0.70461196
10	0xbe137b69	-0.14402546
11	0xbf5769d0	-0.8414583
12	0xbee69e34	-0.45042574
13	0xbef54c30	-0.4790969
14	0xbe1e1d61	-0.15440895
15	0x3d54e819	0.051979158
16	0xbcddc2ff	-0.02707052
17	0xbdeacd5c	-0.114649504
18	0xbd3fe794	-0.04685171
19	0xbe08def3	-0.13366298
20	0xbe3d6a37	-0.18497549
21	0xbd944fa7	-0.07241755
22	0xbf02260f	-0.5083932
23	0xbe73f064	-0.2382217
24	0xbddc8227	-0.10767012
25	0xbfd9187d	-1.6960598
26	0xbe2fd8a7	-0.1717249
27	0x3d5ab651	0.053396527
28	0xbd844de8	-0.06460172
29	0xbdfb5dd7	-0.12273758
30	0xbda4fd8c	-0.08056173
31	0xbe5fff19	-0.21874656
32	0xbee46ce5	-0.4461433
33	0xbf8a0ac2	-1.0784533
34	0xbee7b243	-0.4525319
35	0x3da2004b	0.07910212
36	0xbd1c4e5f	-0.038160678
37	0xbdd2f22d	-0.103000976
38	0xbd4faf8e	-0.05070453
39	0xbdec2e5f	-0.11532282
40	0xbe0611c8	-0.1309272
41	0xbe152aec	-0.14567155
42	0xbdf83033	-0.12118568
43	0xbc4565c2	-0.012048187
44	0xbd3e5f08	-0.046477348
45	0xbd4597e0	-0.048240542
46	0xbe98a4f8	-0.2981336
47	0x3d749599	0.05971298
48	0xbfcf8f0c	-1.621553
49	0xbe635a32	-0.22202376
50	0xbec8d05e	-0.39221472
51	0x3df14288	0.11780268
52	0xbe504b20	-0.20341158
53	0xbe1e84c8	-0.1548034
54	0xbdf8a62b	-0.12141069
55	0x3c9091b7	0.017647607
56	0xbd2d599b	-0.042321783
57	0xbc7c497b	-0.0153983785
58	0xbea43d43	-0.3207799
59	0xbddf1f6c	-0.10894665
60	0x3d6410a3	0.05567993
61	0x3d01c66c	0.03168337
62	0x3d8fa21a	0.0701334
63	0x3e5756a7	0.21029149
64	0xbea6232e	-0.32448715
65	0x3eb6a05d	0.35669222
66	0x3e512507	0.20424281
67	0xbe15a685	-0.14614303
68	0x3e0afc6e	0.13572857
69	0x3ef55297	0.47914574
70	0xbe3dc63b	-0.1853265
71	0xbea18950	-0.31550074
72	0xbe17ee69	-0.1483704
73	0x3e938b8f	0.28817412
74	0xbe7042f8	-0.23463047
75	0xbe275d84	-0.16344267
76	0x3cc0dd47	0.023543013
77	0x3e903450	0.2816491
78	0xbd7d9b19	-0.06191549
79	0x3e8057c2	0.25066954
80	0xbdd665dc	-0.10468647
81	0xbe1b6899	-0.1517662
82	0x3ec25ddd	0.37962237
83	0xbe898881	-0.26861957
84	0x3eb7c85f	0.3589506
85	0x3e4ca4c9	0.19984736
86	0x3b5247a0	0.003208615
87	0xbd8a991f	-0.06767487
88	0x3ea4ca50	0.32185602
89	0x3e4af5f9	0.19820394
90	0x3d020c0e	0.031749777
91	0x3e656640	0.22402287
92	0xbea35cce	-0.31906742
93	0xbde79d54	-0.11309305
94	0x3e8e7e88	0.2783091
95	0xbd301acd	-0.04299431
96	0xbea275be	-0.31730455
97	0x3e2aaa7a	0.16666594
98	0x3de56030	0.11199987
99	0x3d9f0b50	0.077658296
100	0xbcee1d69	-0.029066758
101	0xbe081d1b	-0.13292353
102	0xbebe6c9e	-0.37192243
103	0xbe5da0f1	-0.21643426
104	0xbcd96993	-0.0265396
105	0xbdbece00	-0.09316635
106	0xbec66123	-0.38745984
107	0x3d1b20c0	0.03787303
108	0xbf37deba	-0.7182423
109	0xbeade957	-0.33967087
110	0xbd8c68a5	-0.06855897
111	0xbf1b8e3f	-0.60763925
112	0xbf092c85	-0.53583556
113	0xbeb1fcfd	-0.34763327
114	0xbe06f348	-0.13178742
115	0x3e9b6f46	0.30358332
116	0xbe4c9ceb	-0.19981734
117	0x3dfef4f1	0.124490626
118	0xbd81d50c	-0.063394636
119	0xbd91fcf7	-0.07128327
120	0xbe5563d0	-0.20838857
121	0xbeb33cf3	-0.35007438
122	0xbdbbfee9	-0.0917948
123	0xbe8aa955	-0.27082315
124	0x3d02fe2e	0.031980686
125	0xbf3d7b6a	-0.7401644
126	0x3ddd37cc	0.10801658
127	0x3eaf75cd	0.34269562
128	0x3e049856	0.12948737
129	0x3d9d2a3a	0.0767407
130	0x3d1f2354	0.03885205
131	0x3db332db	0.08749934
132	0xbef89c80	-0.485569
133	0xbf664f7b	-0.8996503
134	0x3e631327	0.22175275
135	0x3e297a0d	0.16550465
136	0x3e5d4679	0.21608914
137	0xbdc19b0e	-0.094534025
138	0xbe45212c	-0.19250935
139	0xbcc5678c	-0.024097227
140	0x3e93c594	0.28861678
141	0xbe81e8ef	-0.25373027
142	0xbeaeead2	-0.3416353
143	0xbab4751e	-0.0013767814
144	0x3e00c5fa	0.12575522
145	0x3da85abd	0.08220432
146	0xbe805dc1	-0.2507153
147	0x3e71e170	0.23621154
148	0xbf212382	-0.62944806
149	0x3e3ba465	0.1832443
150	0xbc584f89	-0.013202556
151	0x3dbb5da3	0.09148719
152	0xbf88efaa	-1.069814
153	0x3c2f8c13	0.010714549
154	0x3c537a5e	0.012907593
155	0xbd8927c1	-0.066970356
156	0xbe33285d	-0.17495866
157	0x3e249efa	0.1607627
158	0xbeda400d	-0.42626992
159	0x3dca435b	0.09876128
160	0xbd53e71f	-0.051734086
161	0xbf2e15f1	-0.6800223
162	0xbeb0a686	-0.34502047
163	0xbebe25de	-0.37138265
164	0xbdebe093	-0.115174435
165	0xbcc53389	-0.024072425
166	0x3ec1e83b	0.3787249
167	0x3cb43a6e	0.022000518
168	0x3e86e308	0.26345086
169	0x3dbc1dd0	0.09185374
170	0xbe577ecc	-0.21044463
171	0xbe8520c5	-0.26001564
172	0x3e72581a	0.2366642
173	0x3e58bef9	0.211666
174	0x3d397d04	0.04528524
175	0xbfb0d35c	-1.3814502
176	0xbecabd0a	-0.3959735
177	0x3e5c9cd8	0.21544206
178	0xbe2ffe6d	-0.171869
179	0xbd32a55f	-0.04361474
180	0xbd86929d	-0.06570933
181	0xbe068b83	-0.13139157
182	0x3d3ac3e3	0.04559697
183	0xbf503f79	-0.8134685
184	0xbee247df	-0.44195458
185	0x3ddecddc	0.10879108
186	0xbe01f32d	-0.1269042
187	0xbda3a17f	-0.07989787
188	0x3e719862	0.23593286
189	0x3e652d8a	0.22380653
190	0xbde4d2ed	-0.111730434
191	0x3e72b854	0.23703128
192	0xbdc8dd00	-0.098077774
193	0xbdf9f9f3	-0.12205877
194	0x3dc17180	0.094454765
195	0xbd41ff1f	-0.047362443
196	0xbd434148	-0.04766968
197	0x3e55c59c	0.20876163
198	0xbf9f96ae	-1.2467859
199	0x3d6eadc0	0.05827117
200	0xbe95e128	-0.29273343
201	0xbe53459c	-0.20632023
202	0x3eee6fed	0.46569768
203	0xbea7fb5c	-0.3280896
204	0xbdd295c3	-0.10282471
205	0x3d83ef9b	0.064421855
206	0xbdd4c7d5	-0.103896774
207	0x3e105671	0.14095475
208	0x3e00a0f5	0.125614
209	0xbea00b4c	-0.3125862
210	0xbe9aee5a	-0.30259973
211	0x3f327b74	0.69719625
212	0x3f1e04e8	0.61726236
213	0x3f2d093f	0.67592233
214	0xbdb62a2d	-0.08894763
215	0x3e555b23	0.20835547
216	0x3d91f0bb	0.07125994
217	0x3e49a5c7	0.19692145
218	0xbe02a424	-0.12757927
219	0x3d7cf3ba	0.061755873
220	0xbe86461b	-0.2622536
221	0x3ed809fb	0.42195114
222	0xbeb975cd	-0.36222687
223	0x3da0fbd7	0.07860535
224	0xbce44f14	-0.027869739
225	0x3f38380c	0.7196052
226	0x3e19ef97	0.15032803
227	0x3d50e9ad	0.0510041
228	0x3e163220	0.14667559
229	0xbcfb2616	-0.03065781
230	0x3d9047f5	0.07044975
231	0x3da8db52	0.08244957
232	0xbec1f6f2	-0.37883717
233	0x3ed3c63a	0.41362172
234	0xbecd1629	-0.4005597
235	0x3d484bd4	0.04890044
236	0x3e902ae1	0.28157714
237	0xbd125ecb	-0.035734933
238	0xbd9847d5	-0.07435576
239	0xbda7685e	-0.08174203
240	0x3d9a3cca	0.07531126
241	0xbc24f1f0	-0.010067448
242	0x3ecbb366	0.39785308
243	0x3e0774b9	0.1322812
244	0xbe2b6be2	-0.16740373
245	0x3db44fa4	0.08804253
246	0xbe14d847	-0.14535628
247	0x3e282300	0.16419601
248	0x3e372879	0.17886533
249	0x3e302d3d	0.17204757
250	0xbd9231d9	-0.07138414
251	0xbeaa924d	-0.33314744
252	0xbf7be564	-0.983969
253	0xbed56b56	-0.41683453
254	0x3e0b6654	0.13613254
255	0xbd6b2c14	-0.057415083

lstm.weight_hh_l0 f4 [200, 50]
0	0xbbb4b10a	-0.0055142688
1	0x3e5aa26f	0.21351026
2	0xbec9bfd8	-0.39404178
3	0x3e3b5842	0.18295386
4	0x3dd59826	0.10429411
5	0xbd3baf88	-0.045821697
6	0xbd6409c3	-0.055673372
7	0x3e3e265d	0.18569322
8	0xbd9b76d3	-0.07591023
9	0x3bf1f9b1	0.007384502
10	0x3df5779d	0.11985705
11	0x3eda8a95	0.42683855
12	0xbd252ca9	-0.040325794
13	0x3ebdd0bc	0.37073314
14	0xbe2ea47b	-0.17054932
15	0x3ddc8696	0.10767858
16	0xbe531471	-0.20613267
17	0x3e0cca14	0.13748962
18	0x3f45cd05	0.7726596
19	0x3ca8293f	0.02052748
20	0xbde2ff7f	-0.11083888
21	0xbdec6f83	-0.11544707
22	0x3c2d1d32	0.010566043
23	0xbd08c9c9	-0.033395562
24	0xbe4d4816	-0.2004703
25	0xbed41cb4	-0.4142815
26	0x3eb4c6db	0.35307965
27	0xbe9a7801	-0.3016968
28	0xbdd81b95	-0.10552136
29	0x3ed35cd6	0.41281766
30	0xbd4d6453	-0.050144505
31	0x3bec9466	0.007219839
32	0x3cf3106d	0.029670918
33	0xbd247ecd	-0.04015999
34	0xbc995292	-0.01871613
35	0xbede1935	-0.43378606
36	0xbdd3f022	-0.10348536
37	0xbe035859	-0.1282667
38	0x3dc349e9	0.095355816
39	0xbe885b39	-0.26632097
40	0x3d74b4a4	0.059742585
41	0x3e4f41e6	0.20239982
42	0xbee20506	-0.44144458
43	0xbe076dde	-0.13225505
44	0xbe2bf39a	-0.16792145
45	0x3e86b3e2	0.26309115
46	0xbf26dff1	-0.6518546
47	0xbd0f3501	-0.034962658
48	0x3e422357	0.18958794
49	0x3e5db73e	0.21651933
50	0xbe919e33	-0.2844101
51	0xbe8a63e0	-0.27029324
52	0xbe163d1c	-0.14671749
53	0x3ea91f1a	0.3303154
54	0x3d9b7356	0.07590358
55	0xbe7edd40	-0.24889088
56	0x3e71848b	0.23585717
57	0xbd52df8d	-0.051482726
58	0xbe37b5dd	-0.17940469
59	0xbe9729b5	-0.29524007
60	0xbe5eac09	-0.21745314
61	0xbf27fbd7	-0.6561865
62	0x3cac6548	0.021044388
63	0xbcf95eeb	-0.030440768
64	0x3e1700a1	0.14746334
65	0xbe881f63	-0.26586446
66	0xbe6aaad0	-0.22916722
67	0xbf157731	-0.58384997
68	0x3e32b228	0.17450774
69	0x3e746bf2	0.23869303
70	0x3d10a58c	0.035314128
71	0xbe7dc5d9	-0.24782504
72	0x3dad178b	0.08451756
73	0x3ebc8408	0.36819482
74	0xbedc5323	-0.43032178
75	0x3d205f20	0.03915322
76	0xbd44308a	-0.047897853
77	0xbf1c2377	-0.60991615
78	0xbe506da8	-0.2035433
79	0x3eefda20	0.46846104
80	0xbe9d6476	-0.30740708
81	0x3f29e286	0.6636127
82	0xbe143726	-0.14474162
83	0xbdfcca1e	-0.12343238
84	0xbe0de3fd	-0.13856502
85	0x3e4259ee	0.18979618
86	0xbdedadbc	-0.11605403
87	0x3ed7adca	0.42124778
88	0x3e625412	0.22102383
89	0xbe8a6911	-0.27033284
90	0x3e6cc7d5	0.23123105
91	0x3dfc2799	0.1231224
92	0xbb3a8892	-0.002846275
93	0xbec5b258	-0.38612628
94	0x3ee99cee	0.4562754
95	0x3f165cf8	0.5873561
96	0xbe417578	-0.18892467
97	0xbebfcb13	-0.3745962
98	0x3d9703dd	0.07373784
99	0xbbca24b7	-0.0061689275
100	0xbeb18990	-0.34675264
101	0xbdf5b123	-0.11996677
102	0xbe6dfa07	-0.23239909
103	0xbde8b78d	-0.113631345
104	0xbd9df1e9	-0.07712156
105	0xbda90c43	-0.08254292
106	0x3ea437ba	0.32073766
107	0x3e12a5f2	0.14321116
108	0xbc8afcc7	-0.016966237
109	0x3e29077d	0.16506763
110	0xbe181e6f	-0.1485536
111	0xbe769b63	-0.24082713
112	0x3dbd9043	0.09256031
113	0x3ebd674f	0.3699288
114	0xbeacbd68	-0.33738256
115	0x3eca27f9	0.39483622
116	0x3c9175d0	0.017756373
117	0x3d073537	0.033009734
118	0x3f6b11aa	0.9182383
119	0x3e697595	0.2279876
120	0x3e29f817	0.16598545
121	0xbc7740d2	-0.015091138
122	0xbe95d827	-0.29266474
123	0xbc2882f0	-0.010285124
124	0x3e712d7d	0.23552509
125	0x3eaf3a39	0.34224108
126	0x3dc16991	0.09443963
127	0x3e7d6692	0.24746159
128	0xbe91370d	-0.28362313
129	0x3eb839cc	0.35981596
130	0xbd878473	-0.066170596
131	0x3d9a19f3	0.07524481
132	0xbec31a32	-0.38105923
133	0xbe8098cc	-0.25116575
134	0xbec4abea	-0.3841241
135	0x3e16c8ff	0.14725111
136	0x3e642e80	0.22283363
137	0x3ee782c7	0.45216963
138	0x3e5526ed	0.2081563
139	0x3b58a475	0.0033057008
140	0x3f18d2eb	0.59696835
141	0xbd137384	-0.035998836
142	0xbdf784a3	-0.12085845
143	0xbee5dd7f	-0.4489555
144	0xbe66c556	-0.22536215
145	0x3d6b087b	0.057381134
146	0xbe8e232a	-0.27761203
147	0xbed7da38	-0.42158675
148	0xbe1e0135	-0.15430148
149	0x3ebf7826	0.37396353
150	0x3ca7c3de	0.020479139
151	0xbe613ee4	-0.21996647
152	0xbdb56e0b	-0.0885888
153	0xbdf193bc	-0.11795756
154	0xbe643523	-0.22285895
155	0xbdf264be	-0.11835621
156	0x3e54293a	0.20718852
157	0x3eafab77	0.34310505
158	0xbec2901a	-0.38000566
159	0x3de6bcab	0.11266454
160	0x3d714ac7	0.058909204
161	0x3f2a4e0d	0.66525346
162	0x3e31e07e	0.17370793
163	0x3f35be3c	0.709934
164	0xbeb622b9	-0.35573366
165	0x3d848419	0.06470508
166	0xbe4c8fb0	-0.19976687
167	0x3cb1f6c7	0.021724118
168	0x3f65a57e	0.89705646
169	0x3e3e80c0	0.18603802
170	0xbe0b1e75	-0.13585837
171	0xbe61fba0	-0.22068644
172	0xbe6f34d7	-0.2336
173	0xbcafb6d9	-0.021449493
174	0x3e9cd81d	0.3063363
175	0xbef8fd13	-0.4863058
176	0x3d76c7c8	0.06024912
177	0xbcbaddcb	-0.022810837
178	0x3e3c9053	0.1841443
179	0x3ec6d4b1	0.38834146
180	0x3ee5747f	0.44815442
181	0xbe088e99	-0.13335647
182	0x3d45d4f4	0.04829879
183	0xbd94a0b6	-0.07257216
184	0xbd4ba1d2	-0.04971487
185	0xbee9eb27	-0.4568722
186	0xbd809bc3	-0.06279709
187	0x3e4425fd	0.19155116
188	0xbde16ef4	-0.11007491
189	0x3e1b1b0a	0.15147033
190	0x3ec90b7a	0.39266568
191	0x3e487d03	0.19578938
192	0xbec226d2	-0.37920243
193	0xbecfcf3e	-0.405878
194	0x3e6726c0	0.22573376
195	0x3ef4aff6	0.47790498
196	0xbee11eae	-0.4396872
197	0xbd4017d0	-0.04689771
198	0xbd95f2b5	-0.07321683
199	0x3dc9ad14	0.09847465
200	0xbe7fbe74	-0.24974996
201	0x3e847720	0.25872135
202	0x3df69c32	0.12041511
203	0x3db5f07e	0.08883761
204	0x3f245780	0.64196014
205	0x3de4fa37	0.11180537
206	0x3ecbaf1c	0.39782035
207	0x3ebc8922	0.36823374
208	0x3e0e3642	0.13887885
209	0xbe2a08df	-0.16604947
210	0xbf3a9536	-0.7288393
211	0xbf569265	-0.8381713
212	0x3e751bef	0.23936437
213	0x3ef334ba	0.47501165
214	0xbefc9d84	-0.49338925
215	0x3ec03555	0.3754069
216	0xbd85bc24	-0.065300256
217	0xbed42825	-0.41436878
218	0x3e3f9ff2	0.18713358
219	0x3e0490eb	0.12945907
220	0x3e6742cc	0.22584075
221	0xbe74a43a	-0.23890772
222	0xbebcaaba	-0.36849004
223	0xbe49f7a3	-0.19723372
224	0x3e892ae8	0.26790547
225	0x3e7d522f	0.24738382
226	0xbee48340	-0.44631386
227	0xbedfcae7	-0.4370949
228	0xbe16d722	-0.14730504
229	0x3daded6d	0.08492551
230	0xbe4a6e2f	-0.19768594
231	0x3e6590cc	0.22418517
232	0xbe82fc53	-0.25583133
233	0xbd978892	-0.073990956
234	0xbeca544e	-0.39517444
235	0xbe04f7c6	-0.12985143
236	0x3ecddaaf	0.40205905
237	0x3ebc5699	0.3678482
238	0x3f541174	0.8283913
239	0x3e8d6237	0.27613994
240	0x3eafb0c6	0.34314555
241	0x3d81e43c	0.063423604
242	0x3ebf87c0	0.37408257
243	0x3d858a11	0.06520475
244	0x3e85df93	0.26147136
245	0x3d9e32e6	0.07724552
246	0xbe4a407a	-0.19751158
247	0xbdf472b0	-0.119359374
248	0x3e867143	0.26258287
249	0x3ed1481c	0.40875328
250	0xbea4416d	-0.32081166
251	0x3ddd7638	0.10813564
252	0x3e4e7b1d	0.20164151
253	0xbe8b6f64	-0.27233422
254	0xbdb90c9a	-0.09035607
255	0xbe944676	-0.28960007

lstm.bias_ih_l0 f4 [200]
0	0xbd8fc439	-0.070198484
1	0xbe999482	-0.29996115
2	0xbebcdf47	-0.36889097
3	0xbde7458a	-0.112925604
4	0x3cb379ab	0.021908602
5	0xbe4b0429	-0.19825806
6	0xbdd6abdc	-0.10481998
7	0x3e41bb9e	0.18919227
8	0xbd9a0ec9	-0.07522351
9	0x3e8110a8	0.2520802
10	0xbe654568	-0.22389758
11	0xbe29252e	-0.16518089
12	0xbe1b3851	-0.15158202
13	0x3e3af894	0.18258888
14	0xbeacfc1d	-0.33786097
15	0xbe5c552e	-0.21516868
16	0xbdada6eb	-0.08479103
17	0xbc271447	-0.010197706
18	0x3e4cb9ae	0.19992706
19	0xbcc229fc	-0.02370166
20	0x3e0481a8	0.12940085
21	0x3e432eb1	0.1906078
22	0xbdfb2c65	-0.12264327
23	0xbf07d981	-0.5306626
24	0x3cd40af0	0.025884122
25	0x3d04f704	0.032462135
26	0xbedf1eb6	-0.43578118
27	0xbee27eb4	-0.44237292
28	0xbf2ebb81	-0.6825486
29	0xbe513cc2	-0.20433334
30	0x3d2e358e	0.042531542
31	0xbe4ad9e9	-0.19809689
32	0xbea525a1	-0.3225527
33	0xbea74084	-0.3266641
34	0xbe03270e	-0.12807867
35	0xbcc05b49	-0.023481028
36	0x3e26b63c	0.16280454
37	0xbcfae5b7	-0.030627115
38	0xbddec95c	-0.1087825
39	0xbe179474	-0.14802724
40	0xbdd63633	-0.104595564
41	0xbe062641	-0.1310053
42	0xbdc55cf6	-0.096368715
43	0xbd4d7aff	-0.050166126
44	0x3dbc0665	0.09180907
45	0xbdb19006	-0.086700484
46	0x3d130d3a	0.035901286
47	0xbe699213	-0.22809629
48	0xbef26a23	-0.473466
49	0x3e126696	0.14296946
50	0x3e0e7da0	0.1391511
51	0xbed810a0	-0.42200184
52	0xbdff9c07	-0.12480932
53	0xbdffbd24	-0.124872476
54	0x3d4fed52	0.050763436
55	0xbdac6ed7	-0.084195785
56	0xbf0bdee9	-0.5463701
57	0x3e8ecf2f	0.27892444
58	0x3eba6ed6	0.36412686
59	0x3d8edb17	0.06975382
60	0xbe058976	-0.13040718
61	0x3e290aed	0.16508074
62	0xbe11b2a8	-0.14228308
63	0x3f042b0d	0.5162819
64	0xbe6d8e66	-0.23198852
65	0xbe147cd3	-0.14500742
66	0xbdbfddfe	-0.093685135
67	0xbddc5c41	-0.107597835
68	0xbeb5f815	-0.35540834
69	0x3e649ade	0.22324702
70	0x3d1fda3d	0.039026488
71	0x3eb6dd94	0.35715926
72	0x3e762607	0.24037944
73	0xbea82f8f	-0.32848784
74	0xbda69ffe	-0.08135985
75	0xbe065e00	-0.13121796
76	0xbf017650	-0.50571156
77	0xbeb8c9d3	-0.3609148
78	0xbdc7b9b0	-0.09752214
79	0x3ec9a2e0	0.39382076
80	0x3cf6bde2	0.03011984
81	0x3dcb3549	0.09922273
82	0xbcce84c4	-0.025209792
83	0xbde52c55	-0.11190096
84	0x3e25c490	0.16188264
85	0x3e525b07	0.20542537
86	0x3ecfdbc7	0.40597364
87	0x3e1de057	0.1541761
88	0xbe94ca08	-0.29060388
89	0xbd94ff85	-0.07275299
90	0x3eb0c276	0.34523362
91	0x3ed4be98	0.41551661
92	0x3ef7bd82	0.4838677
93	0xbd87cf62	-0.06631352
94	0xbed515fd	-0.41618338
95	0x3e622743	0.2208529
96	0x3ecdae40	0.40172005
97	0xbccdf896	-0.02514295
98	0xbe0a0977	-0.13480173
99	0x3e54716b	0.2074639
100	0x3e23c871	0.15994431
101	0x3e04630d	0.1292841
102	0xbccdaf37	-0.025107963
103	0x3dd6c994	0.10487667
104	0x3eff88a4	0.49908936
105	0x3c9a5497	0.018839164
106	0xbd7b098d	-0.061288405
107	0x3dc1847b	0.09449097
108	0x3d930c2f	0.07180058
109	0xbd50c210	-0.050966322
110	0x3df8d556	0.121500656
111	0xbd3d7e29	-0.046262894
112	0x3e9c8b5e	0.3057508
113	0x3d2c4fa2	0.04206813
114	0xbe1c2e0b	-0.15251939
115	0xbe0c6331	-0.13709714
116	0xbe17c23d	-0.1482019
117	0xbdd7ba0a	-0.10533531
118	0xbc115737	-0.008870891
119	0xbe94a6bc	-0.29033458
120	0xbec5b31d	-0.38613215
121	0xbc9ac187	-0.01889111
122	0xbe7babec	-0.24577302
123	0xbc4bfbe1	-0.012450189
124	0xbe91115a	-0.2833355
125	0xbb89fcc6	-0.004211041
126	0x3d0c6df7	0.03428456
127	0xbeb17ec1	-0.34667018
128	0xbddd003c	-0.1079106
129	0xbe7512d8	-0.2393297
130	0xbbdd0eca	-0.0067461478
131	0xbe324f9a	-0.17413178
132	0xbcede5ff	-0.029040335
133	0x3e437ef7	0.19091402
134	0x3e420f30	0.18951106
135	0xbdce8cde	-0.10085462
136	0xbf16efa8	-0.58959436
137	0xbda3600a	-0.07977302
138	0x3e3c3734	0.18380433
139	0x3e33d1cb	0.17560498
140	0x3c4c825b	0.012482251
141	0xbe027e97	-0.12743603
142	0x3dd23ec2	0.10265876
143	0x3e20e3f6	0.1571196
144	0x3df84a98	0.12123603
145	0x3dad2b00	0.08455467
146	0xbe26b329	-0.16279282
147	0x3db6fbc5	0.0893474
148	0xbd991dbf	-0.07476377
149	0xbe8d2114	-0.275643
150	0xbcdc0622	-0.026858393
151	0xbf020adc	-0.5079782
152	0xbe0eb4b0	-0.13936114
153	0xbdf85016	-0.1212465
154	0xbed62420	-0.41824436
155	0xbe516632	-0.2044914
156	0xbeb85603	-0.36003122
157	0xbe6d8fa2	-0.23199323
158	0xbe6a17d9	-0.2286066
159	0xbf5a322b	-0.852328
160	0xbe946fc1	-0.2899151
161	0x3f6a784b	0.915898
162	0x3d82f7de	0.06394933
163	0xbe14b2b3	-0.14521293
164	0x3ea9cdc1	0.3316479
165	0xbe75c247	-0.23999892
166	0xbe3c7e97	-0.18407665
167	0x3afe91ac	0.0019422076
168	0xbe5386fb	-0.2065696
169	0x3f3b7868	0.732306
170	0x3eb05978	0.3444326
171	0xbd079adb	-0.033106666
172	0x3d576e84	0.05259563
173	0xbf1cf005	-0.6130374
174	0xbe88eea9	-0.26744583
175	0xbe324ab7	-0.17411314
176	0xbec649c8	-0.38728166
177	0x3d74208b	0.059601348
178	0x3ebc5d4d	0.36789933
179	0xbd80c89b	-0.062882625
180	0xbe8a147c	-0.26968753
181	0xbea94ecf	-0.3306794
182	0xbe978d97	-0.29600212
183	0xbe256a40	-0.16153812
184	0xbe1b1b1a	-0.15147057
185	0xbead4124	-0.3383876
186	0xbe0720fb	-0.13196175
187	0xbe4cdf46	-0.20007047
188	0xbe0f095a	-0.13968411
189	0xbec7b578	-0.39005637
190	0x3f4bdbfe	0.79632556
191	0xbefebad8	-0.49751925
192	0xbea43890	-0.32074404
193	0xbd2236bc	-0.03960298
194	0xbe9b1915	-0.30292574
195	0x3c3a336a	0.011364797
196	0xbdfcb41a	-0.12339039
197	0xbedf6451	-0.43631223
198	0xbe47e6f1	-0.19521691
199	0xbbc9c8f3	-0.006157988

lstm.bias_hh_l0 f4 [200]
0	0xbe80c66b	-0.2515138
1	0xbed86bbd	-0.42269698
2	0xbef3cecd	-0.47618714
3	0xbe6ce511	-0.23134257
4	0xbe032982	-0.12808803
5	0xbe83995b	-0.25702938
6	0xbdc4240b	-0.09577187
7	0x3da355e5	0.079753675
8	0xbdccc41f	-0.09998345
9	0x3e43989e	0.19101188
10	0xbed1ec22	-0.41000468
11	0x3d33a339	0.043856833
12	0xbdd2f995	-0.1030151
13	0x3d269b9b	0.04067574
14	0xbef2bda2	-0.47410303
15	0xbe080c58	-0.13285959
16	0xbe107e4c	-0.14110678
17	0xbd5fb0a3	-0.054611813
18	0x3e654b84	0.22392088
19	0x3e5beb10	0.21476388
20	0x3e007f5a	0.12548581
21	0x3ed124e9	0.40848473
22	0xbcc8282d	-0.02443322
23	0xbf07a60f	-0.5298776
24	0xbe09480c	-0.1340639
25	0x3ddeda27	0.10881453
26	0xbec9a754	-0.39385474
27	0xbf001f44	-0.5004771
28	0xbf2cecc6	-0.6754879
29	0xbd8daa4d	-0.06917248
30	0x3dd87c5a	0.10570593
31	0xbd70bc99	-0.05877361
32	0xbe2e9812	-0.17050198
33	0xbe8629cf	-0.26203772
34	0xbe49ac39	-0.19694604
35	0xbd5754dc	-0.052571163
36	0x3e9ff94d	0.3124489
37	0x3d4c396c	0.04985945
38	0xbe896927	-0.26838037
39	0xbe2b3f6a	-0.1672341
40	0x3c37dd56	0.011222204
41	0xbd18c2ca	-0.03729514
42	0xbe9fc92b	-0.31208166
43	0xbe596b79	-0.21232404
44	0x3d777b2a	0.060420193
45	0xbd0624a1	-0.032749776
46	0x3e5a7c20	0.21336412
47	0xbe3fc2a3	-0.18726592
48	0xbeb748c1	-0.35797694
49	0x3e95c346	0.29250544
50	0x3de64b83	0.112448715
51	0xbeb3746c	-0.3504976
52	0xbe8c75e6	-0.274337
53	0xbe6584d8	-0.22413957
54	0x3daaf0c0	0.08346701
55	0xbb8c9bf0	-0.00429105
56	0xbef42cd1	-0.47690442
57	0x3e5abe74	0.21361715
58	0x3e2cc223	0.16870932
59	0x3e8bbb51	0.2729135
60	0xbe45ce77	-0.19317041
61	0xbb9337ad	-0.004492721
62	0xbe3f4676	-0.18679222
63	0x3f1bd8d3	0.6087772
64	0xbe7dc1b7	-0.24780928
65	0xbe69e962	-0.22842935
66	0xbdb7bf54	-0.0897204
67	0x3c49d2e3	0.012318346
68	0xbe13d59e	-0.14436957
69	0x3e8b274a	0.27178413
70	0xbe0910b1	-0.13385274
71	0x3ebba8f3	0.36652336
72	0x3ec46334	0.38356936
73	0xbe5ac682	-0.21364787
74	0xbdac1fc2	-0.08404495
75	0x3da07451	0.078346856
76	0xbed4c4a9	-0.4155629
77	0xbeb460d1	-0.35230115
78	0xbd80aa82	-0.06282522
79	0x3ece9dff	0.40354916
80	0xbc763c7b	-0.015029068
81	0x3becc575	0.007225687
82	0xbdc2deb0	-0.095151305
83	0xbdd375ca	-0.10325201
84	0xbd3205aa	-0.043462433
85	0x3dfd85a0	0.123790026
86	0x3f0253c0	0.5090904
87	0x3cf75768	0.030193046
88	0xbe7e9a25	-0.24863489
89	0x3ca3e5a7	0.020006968
90	0x3eee4e93	0.46544322
91	0x3ef93bd0	0.48678446
92	0x3f0e2f0b	0.5554053
93	0xbe2b880d	-0.16751118
94	0xbebb75f5	-0.36613432
95	0x3e296e4e	0.16545984
96	0x3e75495a	0.23953763
97	0xbd95d0ba	-0.07315202
98	0xbe93975b	-0.28826413
99	0x3ea84194	0.32862532
100	0x3e689db8	0.22716415
101	0x3e11a5ee	0.14223453
102	0x3e492faa	0.19647089
103	0x3e5ed046	0.21759138
104	0x3eef9898	0.46796107
105	0x3c226105	0.009910827
106	0x3d13923c	0.03602813
107	0xbdd594a4	-0.104287416
108	0xbd95e5b4	-0.07319203
109	0x3e01116b	0.126043
110	0xbc4b20d7	-0.012397966
111	0xbe0362a4	-0.12830597
112	0x3e259fb2	0.161742
113	0x3ab0c59a	0.0013486624
114	0xbe7ce957	-0.24698387
115	0xbe4c35b6	-0.19942364
116	0xbe0ce98c	-0.13760966
117	0xbe152966	-0.14566574
118	0x3c85233d	0.016252154
119	0xbe8cd1b7	-0.2750375
120	0xbec1058e	-0.3769955
121	0x3e0518d7	0.12997757
122	0x3c17a0b0	0.0092546195
123	0x3aef72cc	0.0018268465
124	0xbec0c502	-0.37650305
125	0xbe1602f9	-0.14649571
126	0x3dc8fd2d	0.098139144
127	0xbeabbe7b	-0.33543763
128	0x3c72f97f	0.014829992
129	0xbe833129	-0.25623444
130	0xbe2c42ea	-0.168224
131	0xbe784c6b	-0.24247901
132	0x3c82ce25	0.015967438
133	0x3e6fcfea	0.23419157
134	0x3e04af4d	0.12957497
135	0xbca2c2ee	-0.01986834
136	0xbf171e28	-0.5903039
137	0xbe166ba7	-0.14689504
138	0x3e54d3c6	0.2078391
139	0x3d138f91	0.036025587
140	0xbe3fbef8	-0.18725193
141	0xbd3d9d11	-0.04629237
142	0xbc1c6629	-0.009545841
143	0x3d14d596	0.036336504
144	0xbd8d8601	-0.06910325
145	0xbd6df9cb	-0.05809955
146	0xbe4f23b0	-0.20228457
147	0x3dbebe68	0.09313661
148	0xbd8f7c5c	-0.070061415
149	0xbe5a2daa	-0.21306482
150	0x3c937dc5	0.018004308
151	0xbec17505	-0.3778459
152	0xbd9e5105	-0.07730297
153	0xbe6e6495	-0.23280556
154	0xbecaf740	-0.39641762
155	0xbe1ccbec	-0.15312165
156	0xbf0ccdbc	-0.55001426
157	0xbe30c58c	-0.17262858
158	0xbe1b0287	-0.15137683
159	0xbf86ee69	-1.0541507
160	0xbe877879	-0.264591
161	0x3f69fd00	0.9140167
162	0x3dcb84c1	0.0993743
163	0xbcef7d2f	-0.029234497
164	0x3e23a8d7	0.15982376
165	0xbe1ae268	-0.1512543
166	0xbe636fc6	-0.22210607
167	0xbe022956	-0.12711081
168	0xbc957acf	-0.018247036
169	0x3f47f2a8	0.7810464
170	0x3e321d9b	0.17394106
171	0xbe31b9b8	-0.17356002
172	0x3dbc386f	0.09190451
173	0xbf07dda6	-0.53072584
174	0xbe981b04	-0.2970811
175	0xbe0a265a	-0.13491192
176	0xbef15759	-0.47136953
177	0x3e47d7a2	0.19515851
178	0x3eb92668	0.36162114
179	0xbd1631e3	-0.03666867
180	0xbe83fd30	-0.25779104
181	0xbe85d904	-0.26142132
182	0xbdc99e3b	-0.09844633
183	0xbdeb922e	-0.11502491
184	0x3d3a9cc4	0.04555966
185	0xbed1fd50	-0.41013575
186	0xbdf7aa01	-0.120929725
187	0xbe172672	-0.1476076
188	0x3cbe6bd6	0.02324478
189	0xbe685c8a	-0.22691551
190	0x3f28b051	0.6589404
191	0xbf00584c	-0.5013473
192	0xbe08d30f	-0.13361762
193	0x3d0b7eb3	0.034056377
194	0xbe8a2bcd	-0.26986542
195	0xbc03042b	-0.007996599
196	0x3dc7eb54	0.09761682
197	0xbeb96abc	-0.36214244
198	0xbe5b240a	-0.21400467
199	0x3bdd11fa	0.0067465277

linearOut.weight f4 [1, 50]
0	0xbed3fd75	-0.4140431
1	0x3dc042dd	0.09387753
2	0x3d880cb9	0.06643052
3	0xbe737f1c	-0.23778957
4	0x3d312c79	0.043255303
5	0xbe477247	-0.19477187
6	0x3d9a932a	0.075476006
7	0xbd8f5d5b	-0.07000228
8	0xbc59f652	-0.013303356
9	0x3e926af5	0.28597227
10	0xbcfe6309	-0.031053083
11	0x3ea8e385	0.32986084
12	0x3dfe4b79	0.12416739
13	0xbe4b3816	-0.19845614
14	0xbea153b7	-0.31509182
15	0x3e8a4d2b	0.27012
16	0x3e6af630	0.22945476
17	0x3d8bc253	0.06824174
18	0x3de1cbcf	0.110252015
19	0x3eacb21c	0.33729637
20	0xbe612d17	-0.21989857
21	0x3e47eea4	0.19524628
22	0xbe4c26f7	-0.19936739
23	0x3e097d54	0.13426715
24	0x3e767b5b	0.24070494
25	0x3e5ec00e	0.2175295
26	0x3cde569e	0.027140912
27	0x3c1cbee3	0.009566995
28	0x3e8b5269	0.2721131
29	0x3f4e903c	0.80688834
30	0xbe2001a5	-0.15625627
31	0xbea026f7	-0.31279728
32	0xbe083487	-0.13301288
33	0x3d993908	0.07481581
34	0xbed832fa	-0.42226392
35	0x3e207a3c	0.15671629
36	0xbe9aea23	-0.30256757
37	0xbdea0c89	-0.11428172
38	0x3defd410	0.117103696
39	0x3e176a28	0.14786589
40	0x3e849346	0.2589361
41	0xbdbc3750	-0.091902375
42	0x3db735a6	0.089457795
43	0x3d28713f	0.041123625
44	0x3de9645a	0.11396094
45	0xbc8de1f1	-0.017319651
46	0xbe8b07c7	-0.2715437
47	0x3df35611	0.1188165
48	0xbcab097f	-0.020878552
49	0xbe8c28ad	-0.27374783
